…
 be removed in the future and UntypedStorage will be the only storage class. This should only matter to you if you are using storages directly.  To access UntypedStorage directly, use tensor.untyped_storage() instead of tensor.storage()\n  action_fn=lambda data: sys.getsizeof(data.storage()),\n\n\n==========================================================================================\nLayer (type:depth-idx)                   Output Shape              Param #\n==========================================================================================\nMLPActor                                 [1, 1]                    --\n├─Sequential: 1-1                        [1, 1]                    --\n│    └─Linear: 2-1                       [1, 64]                   192\n│    └─ReLU: 2-2                         [1, 64]                   --\n│    └─Dropout: 2-3                      [1, 64]                   --\n│    └─Linear: 2-4                       [1, 64]                   4,160\n│    └─ReLU: 2-5                         [1, 64]                   --\n│    └─Dropout: 2-6                      [1, 64]                   --\n│    └─Linear: 2-7                       [1, 1]                    65\n│    └─Identity: 2-8                     [1, 1]                    --\n==========================================================================================\nTotal params: 4,417\nTrainable params: 4,417\nNon-trainable params: 0\nTotal mult-adds (M): 0.00\n==========================================================================================\nInput size (MB): 0.00\nForward/backward pass size (MB): 0.00\nParams size (MB): 0.02\nEstimated Total Size (MB): 0.02\n==========================================================================================\n\n\nINFO:root:Critic network:\n\n\n==========================================================================================\nLayer (type:depth-idx)                   Output Shape              Param #\n==========================================================================================\nMLPState                                 [1, 1]                    --\n├─Sequential: 1-1                        [1, 1]                    --\n│    └─Linear: 2-1                       [1, 64]                   192\n│    └─ReLU: 2-2                         [1, 64]                   --\n│    └─Dropout: 2-3                      [1, 64]                   --\n│    └─Linear: 2-4                       [1, 64]                   4,160\n│    └─ReLU: 2-5                         [1, 64]                   --\n│    └─Dropout: 2-6                      [1, 64]                   --\n│    └─Linear: 2-7                       [1, 1]                    65\n│    └─Identity: 2-8                     [1, 1]                    --\n==========================================================================================\nTotal params: 4,417\nTrainable params: 4,417\nNon-trainable params: 0\nTotal mult-adds (M): 0.00\n==========================================================================================\nInput size (MB): 0.00\nForward/backward pass size (MB): 0.00\nParams size (MB): 0.02\nEstimated Total Size (MB): 0.02\n==========================================================================================\n-44.039980104932894 -28.64890791879266\n-44.039980104932894 -28.64890791879266",
…
 be removed in the future and UntypedStorage will be the only storage class. This should only matter to you if you are using storages directly.  To access UntypedStorage directly, use tensor.untyped_storage() instead of tensor.storage()\n  action_fn=lambda data: sys.getsizeof(data.storage()),\n\n\n==========================================================================================\nLayer (type:depth-idx)                   Output Shape              Param #\n==========================================================================================\nMLPActor                                 [1, 1]                    --\n├─Sequential: 1-1                        [1, 1]                    --\n│    └─Linear: 2-1                       [1, 64]                   192\n│    └─ReLU: 2-2                         [1, 64]                   --\n│    └─Dropout: 2-3                      [1, 64]                   --\n│    └─Linear: 2-4                       [1, 64]                   4,160\n│    └─ReLU: 2-5                         [1, 64]                   --\n│    └─Dropout: 2-6                      [1, 64]                   --\n│    └─Linear: 2-7                       [1, 1]                    65\n│    └─Identity: 2-8                     [1, 1]                    --\n==========================================================================================\nTotal params: 4,417\nTrainable params: 4,417\nNon-trainable params: 0\nTotal mult-adds (M): 0.00\n==========================================================================================\nInput size (MB): 0.00\nForward/backward pass size (MB): 0.00\nParams size (MB): 0.02\nEstimated Total Size (MB): 0.02\n==========================================================================================\n\n\nINFO:root:################################################################################\nINFO:root:Critic network:\n\n\n==========================================================================================\nLayer (type:depth-idx)                   Output Shape              Param #\n==========================================================================================\nMLPStateAction                           --                        --\n├─Sequential: 1-1                        [1, 1]                    --\n│    └─Linear: 2-1                       [1, 64]                   256\n│    └─ReLU: 2-2                         [1, 64]                   --\n│    └─Dropout: 2-3                      [1, 64]                   --\n│    └─Linear: 2-4                       [1, 64]                   4,160\n│    └─ReLU: 2-5                         [1, 64]                   --\n│    └─Dropout: 2-6                      [1, 64]                   --\n│    └─Linear: 2-7                       [1, 1]                    65\n│    └─Identity: 2-8                     [1, 1]                    --\n==========================================================================================\nTotal params: 4,481\nTrainable params: 4,481\nNon-trainable params: 0\nTotal mult-adds (M): 0.00\n==========================================================================================\nInput size (MB): 0.00\nForward/backward pass size (MB): 0.00\nParams size (MB): 0.02\nEstimated Total Size (MB): 0.0
…
\n/Users/magnus/miniforge3/envs/inventory_gym_2/lib/python3.11/site-packages/gymnasium/spaces/box.py:130: UserWarning: WARN: Box bound precision lowered by casting to float32\n  gym.logger.warn(f\"Box bound precision lowered by casting to {self.dtype}\")\nINFO:root:Actor network (mu network):\n\n\n==========================================================================================\nLayer (type:depth-idx)                   Output Shape              Param #\n==========================================================================================\nRNNActor                                 [1, 1]                    --\n├─RNNMLPHybrid: 1-1                      [1, 1]                    --\n│    └─Sequential: 2-1                   [1, 6, 64]                --\n│    │    └─SpecificRNNWrapper: 3-1      [1, 6, 64]                13,248\n│    │    └─ReLU: 3-2                    [1, 6, 64]                --\n│    └─Sequential: 2-2                   [1, 1]                    --\n│    │    └─Linear: 3-3                  [1, 64]                   4,160\n│    │    └─ReLU: 3-4                    [1, 64]                   --\n│    │    └─Dropout: 3-5                 [1, 64]                   --\n│    │    └─Linear: 3-6                  [1, 64]                   4,160\n│    │    └─ReLU: 3-7                    [1, 64]                   --\n│    │    └─Dropout: 3-8                 [1, 64]                   --\n│    │    └─Linear: 3-9                  [1, 1]                    65\n==========================================================================================\nTotal params: 21,633\nTrainable params: 21,633\nNon-trainable params: 0\nTotal mult-adds (M): 0.09\n==========================================================================================\nInput size (MB): 0.00\nForward/backward pass size (MB): 0.00\nParams size (MB): 0.09\nEstimated Total Size (MB): 0.09\n==========================================================================================\n\n\nINFO:root:################################################################################\nINFO:root:Critic network:\n\n\n==========================================================================================\nLayer (type:depth-idx)                   Output Shape              Param #\n==========================================================================================\nRNNStateAction                           --                        --\n├─RNNMLPHybrid: 1-1                      [1, 1]                    --\n│    └─Sequential: 2-1                   [1, 6, 64]                --\n│    │    └─SpecificRNNWrapper: 3-1      [1, 6, 64]                13,248\n│    │    └─ReLU: 3-2                    [1, 6, 64]                --\n│    └─Sequential: 2-2                   [1, 1]                    --\n│    │    └─Linear: 3-3                  [1, 64]                   4,224\n│    │    └─ReLU: 3-4                    [1, 64]                   --\n│    │    └─Dropout: 3-5                 [1, 64]                   --\n│    │    └─Linear: 3-6                  [1, 64]                   4,160\n│    │    └─ReLU: 3-7                    [1, 64]                   --\n│    │    └─Dropout: 3-8                 [1, 64]                   --\n│    │    └─Linear: 3-9                  [1, 1]                    65\n==========================================================================================\nTotal params: 21,697\nTrainable params: 21,697\nNon-trainable params: 0\nTotal mult-adds (M): 0.09\n==========================================================================================\nInput size (MB): 0.00\nForward/backward pass size (MB): 0.00\nParams size (MB): 0.09\nEstimated Total Size (MB): 0.09\n==========================================================================================\n-383.1306977574299 -243.60956423506602\n-383.1306977574299 -243.60956423506602",
…
